python/models/DNN_DEEP_backup/params/layer8_weight.npy (npy, 32896 bytes, 1 tensors)

array f4 [64, 128]
000000 00 00 18 42 00 00 60 41 00 00 80 41 00 00 00 c0
       38.0 14.0 16.0 -2.0
000010 00 00 50 41 00 00 a8 c2 00 00 80 c1 00 00 00 40
       13.0 -84.0 -16.0 2.0
000020 00 00 f8 c2 00 00 c0 40 00 00 b8 c2 00 00 d0 c1
       -124.0 6.0 -92.0 -26.0
000030 00 00 18 42 00 00 9a c2 00 00 20 c2 00 00 c0 c1
       38.0 -77.0 -40.0 -24.0
000040 00 00 ee c2 00 00 e0 c0 00 00 c0 c2 00 00 4c c2
       -119.0 -7.0 -96.0 -51.0
000050 00 00 40 c2 00 00 a0 c1 00 00 0c 42 00 00 98 c1
       -48.0 -20.0 35.0 -19.0
000060 00 00 70 42 00 00 b0 c1 00 00 98 41 00 00 98 41
       60.0 -22.0 19.0 19.0
000070 00 00 b0 c1 00 00 8a c2 00 00 74 42 00 00 68 42
       -22.0 -69.0 61.0 58.0
000080 00 00 a0 c0 00 00 60 c1 00 00 b0 41 00 00 aa c2
       -5.0 -14.0 22.0 -85.0
000090 00 00 90 41 00 00 b8 41 00 00 94 c2 00 00 84 42
       18.0 23.0 -74.0 66.0
0000a0 00 00 d8 41 00 00 98 c1 00 00 10 41 00 00 58 42
       27.0 -19.0 9.0 54.0
0000b0 00 00 c8 c1 00 00 2c 42 00 00 90 c1 00 00 92 42
       -25.0 43.0 -18.0 73.0
0000c0 00 00 10 41 00 00 90 c2 00 00 a0 c2 00 00 10 c1
       9.0 -72.0 -80.0 -9.0
0000d0 00 00 78 42 00 00 c4 c2 00 00 28 42 00 00 54 42
       62.0 -98.0 42.0 53.0
0000e0 00 00 a6 c2 00 00 10 c1 00 00 90 42 00 00 00 c2
       -83.0 -9.0 72.0 -32.0
0000f0 00 00 b6 c2 00 00 92 c2 00 00 a0 40 00 00 92 42
       -91.0 -73.0 5.0 73.0
000100 00 00 b0 41 00 00 94 c2 00 00 04 42 00 00 88 41
       22.0 -74.0 33.0 17.0
000110 00 00 c8 c1 00 00 88 c1 00 00 b6 c2 00 00 88 41
       -25.0 -17.0 -91.0 17.0
000120 00 00 94 c2 00 00 bc c2 00 00 34 42 00 00 a0 c0
       -74.0 -94.0 45.0 -5.0
000130 00 00 4c 42 00 00 84 c2 00 00 c0 40 00 00 c8 41
       51.0 -66.0 6.0 25.0
000140 00 00 ae c2 00 00 dc c2 00 00 88 c2 00 00 88 c1
       -87.0 -110.0 -68.0 -17.0
000150 00 00 f8 c1 00 00 e8 41 00 00 4c c2 00 00 10 c1
       -31.0 29.0 -51.0 -9.0
000160 00 00 50 41 00 00 80 3f 00 00 b2 c2 00 00 e0 c0
       13.0 1.0 -89.0 -7.0
000170 00 00 d0 c1 00 00 30 c2 00 00 68 42 00 00 80 c0
       -26.0 -44.0 58.0 -4.0
000180 00 00 f0 c1 00 00 82 c2 00 00 94 c2 00 00 68 42
       -30.0 -65.0 -74.0 58.0
000190 00 00 92 42 00 00 80 42 00 00 00 42 00 00 98 c1
       73.0 64.0 32.0 -19.0
0001a0 00 00 18 c2 00 00 44 c2 00 00 b8 41 00 00 a8 c1
       -38.0 -49.0 23.0 -21.0
0001b0 00 00 00 42 00 00 e0 41 00 00 80 3f 00 00 40 c0
       32.0 28.0 1.0 -3.0
0001c0 00 00 80 c0 00 00 8a 42 00 00 e2 c2 00 00 b4 42
       -4.0 69.0 -113.0 90.0
0001d0 00 00 64 42 00 00 c8 c2 00 00 60 c1 00 00 aa c2
       57.0 -100.0 -14.0 -85.0
0001e0 00 00 18 42 00 00 20 42 00 00 18 c2 00 00 80 42
       38.0 40.0 -38.0 64.0
0001f0 00 00 98 41 00 00 c0 c0 00 00 30 41 00 00 80 c0
       19.0 -6.0 11.0 -4.0
000200 00 00 a0 41 00 00 d8 41 00 00 b0 41 00 00 00 00
       20.0 27.0 22.0 0.0
000210 00 00 d0 41 00 00 b4 42 00 00 30 c2 00 00 b8 c1
       26.0 90.0 -44.0 -23.0
000220 00 00 f0 c1 00 00 70 41 00 00 bc c2 00 00 9c c2
       -30.0 15.0 -94.0 -78.0
000230 00 00 70 c1 00 00 08 c2 00 00 f8 41 00 00 40 c0
       -15.0 -34.0 31.0 -3.0
000240 00 00 b0 c1 00 00 b8 c2 00 00 94 42 00 00 b4 c2
       -22.0 -92.0 74.0 -90.0
000250 00 00 b6 c2 00 00 3c c2 00 00 78 c2 00 00 a8 c1
       -91.0 -47.0 -62.0 -21.0
000260 00 00 20 c1 00 00 a0 40 00 00 8c c2 00 00 f2 c2
       -10.0 5.0 -70.0 -121.0
000270 00 00 f8 c1 00 00 88 42 00 00 48 42 00 00 f0 c1
       -31.0 68.0 50.0 -30.0
000280 00 00 40 40 00 00 b4 c2 00 00 a4 c2 00 00 a8 c2
       3.0 -90.0 -82.0 -84.0
000290 00 00 4c 42 00 00 60 41 00 00 40 42 00 00 d8 c2
       51.0 14.0 48.0 -108.0
0002a0 00 00 38 c2 00 00 28 c2 00 00 a8 c1 00 00 84 42
       -46.0 -42.0 -21.0 66.0
0002b0 00 00 28 c2 00 00 94 c2 00 00 b8 c1 00 00 50 42
       -42.0 -74.0 -23.0 52.0
0002c0 00 00 86 42 00 00 d8 41 00 00 cc c2 00 00 54 c2
       67.0 27.0 -102.0 -53.0
0002d0 00 00 10 42 00 00 ae c2 00 00 50 c1 00 00 48 c2
       36.0 -87.0 -13.0 -50.0
0002e0 00 00 10 41 00 00 90 c2 00 00 00 c0 00 00 50 42
       9.0 -72.0 -2.0 52.0
0002f0 00 00 c0 41 00 00 7c c2 00 00 80 40 00 00 04 c2
       24.0 -63.0 4.0 -33.0
000300 00 00 40 c2 00 00 ca c2 00 00 b0 c2 00 00 20 41
       -48.0 -101.0 -88.0 10.0
000310 00 00 a8 c1 00 00 88 42 00 00 b0 c1 00 00 c0 41
       -21.0 68.0 -22.0 24.0
000320 00 00 c6 c2 00 00 92 c2 00 00 40 c1 00 00 9a c2
       -99.0 -73.0 -12.0 -77.0
000330 00 00 c0 40 00 00 70 c1 00 00 86 42 00 00 80 3f
       6.0 -15.0 67.0 1.0
000340 00 00 44 42 00 00 4c 42 00 00 40 c1 00 00 04 c2
       49.0 51.0 -12.0 -33.0
000350 00 00 92 c2 00 00 5c c2 00 00 82 42 00 00 20 c2
       -73.0 -55.0 65.0 -40.0
000360 00 00 54 42 00 00 0c 42 00 00 b0 c2 00 00 4c c2
       53.0 35.0 -88.0 -51.0
000370 00 00 a0 c0 00 00 58 42 00 00 80 42 00 00 d4 42
       -5.0 54.0 64.0 106.0
000380 00 00 9e c2 00 00 7c 42 00 00 88 c1 00 00 92 c2
       -79.0 63.0 -17.0 -73.0
000390 00 00 a0 c1 00 00 98 c2 00 00 08 42 00 00 a0 c1
       -20.0 -76.0 34.0 -20.0
0003a0 00 00 a8 c2 00 00 a0 c0 00 00 b0 c1 00 00 80 42
       -84.0 -5.0 -22.0 64.0
0003b0 00 00 b4 c2 00 00 30 42 00 00 28 42 00 00 c0 40
       -90.0 44.0 42.0 6.0
0003c0 00 00 3c 42 00 00 a0 c1 00 00 00 42 00 00 08 c2
       47.0 -20.0 32.0 -34.0
0003d0 00 00 e8 c1 00 00 b0 c2 00 00 b0 c2 00 00 00 40
       -29.0 -88.0 -88.0 2.0
0003e0 00 00 40 41 00 00 20 42 00 00 60 c1 00 00 20 42
       12.0 40.0 -14.0 40.0
0003f0 00 00 08 42 00 00 1c c2 00 00 c8 41 00 00 00 c3
       34.0 -39.0 25.0 -128.0
