python/models/DNN_DEEP_backup/params/layer9_weight.npy (npy, 640 bytes, 1 tensors)

array f4 [2, 64]
000000 00 00 80 3f 00 00 10 42 00 00 80 c0 00 00 e8 42
       1.0 36.0 -4.0 116.0
000010 00 00 20 42 00 00 9e c2 00 00 80 3f 00 00 82 42
       40.0 -79.0 1.0 65.0
000020 00 00 f0 41 00 00 9a 42 00 00 28 42 00 00 00 42
       30.0 77.0 42.0 32.0
000030 00 00 b6 c2 00 00 ce c2 00 00 70 42 00 00 24 42
       -91.0 -103.0 60.0 41.0
000040 00 00 08 42 00 00 ec c2 00 00 80 c2 00 00 de c2
       34.0 -118.0 -64.0 -111.0
000050 00 00 50 41 00 00 30 c2 00 00 54 42 00 00 00 42
       13.0 -44.0 53.0 32.0
000060 00 00 b8 41 00 00 96 c2 00 00 30 c1 00 00 b0 c1
       23.0 -75.0 -11.0 -22.0
000070 00 00 8a c2 00 00 d2 42 00 00 18 42 00 00 a0 42
       -69.0 105.0 38.0 80.0
000080 00 00 80 c2 00 00 96 42 00 00 00 c2 00 00 70 c1
       -64.0 75.0 -32.0 -15.0
000090 00 00 a2 c2 00 00 8a 42 00 00 90 41 00 00 92 42
       -81.0 69.0 18.0 73.0
0000a0 00 00 64 42 00 00 ce c2 00 00 50 c2 00 00 70 41
       57.0 -103.0 -52.0 15.0
0000b0 00 00 08 42 00 00 40 c0 00 00 ea 42 00 00 40 41
       34.0 -3.0 117.0 12.0
0000c0 00 00 88 42 00 00 e6 c2 00 00 50 c1 00 00 90 c1
       68.0 -115.0 -13.0 -18.0
0000d0 00 00 d0 c1 00 00 b0 c2 00 00 10 c2 00 00 fe 42
       -26.0 -88.0 -36.0 127.0
0000e0 00 00 4c 42 00 00 70 42 00 00 ac c2 00 00 a8 c2
       51.0 60.0 -86.0 -84.0
0000f0 00 00 0c 42 00 00 44 c2 00 00 90 42 00 00 40 c2
       35.0 -49.0 72.0 -48.0
000100 00 00 48 42 00 00 40 42 00 00 9e 42 00 00 ac c2
       50.0 48.0 79.0 -86.0
000110 00 00 0c 42 00 00 c4 c2 00 00 00 c0 00 00 80 42
       35.0 -98.0 -2.0 64.0
000120 00 00 38 42 00 00 70 c2 00 00 20 42 00 00 6c c2
       46.0 -60.0 40.0 -59.0
000130 00 00 b4 42 00 00 a0 c0 00 00 40 c0 00 00 4c 42
       90.0 -5.0 -3.0 51.0
000140 00 00 30 42 00 00 ec 42 00 00 90 c2 00 00 ce c2
       44.0 118.0 -72.0 -103.0
000150 00 00 50 41 00 00 a4 c2 00 00 9e c2 00 00 04 42
       13.0 -82.0 -79.0 33.0
000160 00 00 80 bf 00 00 54 c2 00 00 b0 42 00 00 b0 c1
       -1.0 -53.0 88.0 -22.0
000170 00 00 88 c2 00 00 de 42 00 00 84 42 00 00 b4 42
       -68.0 111.0 66.0 90.0
000180 00 00 b0 c2 00 00 64 42 00 00 d8 41 00 00 d6 c2
       -88.0 57.0 27.0 -107.0
000190 00 00 88 42 00 00 60 42 00 00 c4 c2 00 00 d4 42
       68.0 56.0 -98.0 106.0
0001a0 00 00 ae 42 00 00 b8 41 00 00 24 c2 00 00 80 3f
       87.0 23.0 -41.0 1.0
0001b0 00 00 a8 c2 00 00 e4 c2 00 00 9e c2 00 00 30 41
       -84.0 -114.0 -79.0 11.0
0001c0 00 00 c0 42 00 00 10 c1 00 00 88 c1 00 00 84 c2
       96.0 -9.0 -17.0 -66.0
0001d0 00 00 78 c2 00 00 8c c2 00 00 d8 41 00 00 5c c2
       -62.0 -70.0 27.0 -55.0
0001e0 00 00 9c 42 00 00 78 42 00 00 aa c2 00 00 86 42
       78.0 62.0 -85.0 67.0
0001f0 00 00 e2 c2 00 00 44 c2 00 00 8c 42 00 00 9e 42
       -113.0 -49.0 70.0 79.0
