Machine Learning Algorithm Deployed/mapper/in/net2.onnx (onnx, 10491 bytes, 2 tensors)

head_w f4 [256, 10]
00000000: 0000 fe42 0000 e6c2 0000 9041 0000 bc42
00000010: 0000 00c3 0000 60c1 0000 fe42 0000 7042
00000020: 0000 88c1 0000 c0c0 0000 80c2 0000 84c2
00000030: 0000 c0c1 0000 fe42 0000 e8c2 0000 d242
00000040: 0000 74c2 0000 b842 0000 6042 0000 54c2
00000050: 0000 e0c1 0000 0842 0000 c2c2 0000 c841
00000060: 0000 e0c1 0000 3042 0000 e2c2 0000 04c2
00000070: 0000 e041 0000 7842 0000 4041 0000 ec42
00000080: 0000 00c2 0000 00c3 0000 e042 0000 2442
00000090: 0000 2cc2 0000 fe42 0000 54c2 0000 68c2
000000a0: 0000 a8c1 0000 e2c2 0000 70c1 0000 ba42
000000b0: 0000 acc2 0000 803f 0000 c040 0000 fe42
000000c0: 0000 50c1 0000 44c2 0000 c0c0 0000 40c2
000000d0: 0000 9442 0000 5041 0000 14c2 0000 c040
000000e0: 0000 1041 0000 e040 0000 d841 0000 9ac2
000000f0: 0000 5cc2 0000 f841 0000 fe42 0000 d842
00000100: 0000 00c3 0000 30c1 0000 98c1 0000 00c3
00000110: 0000 c0c0 0000 b0c2 0000 c642 0000 00c3
00000120: 0000 c8c2 0000 9642 0000 a8c1 0000 d842
00000130: 0000 c2c2 0000 b642 0000 9842 0000 9041
00000140: 0000 bcc2 0000 c0c1 0000 30c1 0000 f0c2
00000150: 0000 da42 0000 9242 0000 7041 0000 a042
00000160: 0000 aa42 0000 a442 0000 f4c2 0000 fe42
00000170: 0000 70c1 0000 d4c2 0000 fe42 0000 8442
00000180: 0000 20c1 0000 eec2 0000 e8c1 0000 f041
00000190: 0000 c4c2 0000 f242 0000 78c2 0000 a842
000001a0: 0000 e8c1 0000 34c2 0000 68c2 0000 fe42
000001b0: 0000 f8c1 0000 9841 0000 b842 0000 00c3
000001c0: 0000 90c1 0000 ce42 0000 c0c1 0000 8ac2
000001d0: 0000 7c42 0000 d642 0000 94c2 0000 c4c2
000001e0: 0000 a041 0000 9a42 0000 c4c2 0000 b442
000001f0: 0000 00c3 0000 dc42 0000 38c2 0000 20c2
00000200: 0000 44c2 0000 a040 0000 0842 0000 eac2
00000210: 0000 4842 0000 e041 0000 00c3 0000 e040
00000220: 0000 a8c1 0000 9a42 0000 8c42 0000 cac2
00000230: 0000 96c2 0000 5041 0000 fe42 0000 fa42
00000240: 0000 dac2 0000 e642 0000 a0c0 0000 00c3
00000250: 0000 10c1 0000 e0c0 0000 d4c2 0000 00c3
00000260: 0000 be42 0000 f042 0000 d8c2 0000 a040
00000270: 0000 9ec2 0000 54c2 0000 fe42 0000 1842
00000280: 0000 b042 0000 00c3 0000 9e42 0000 e041
00000290: 0000 00c3 0000 fe42 0000 9e42 0000 fac2
000002a0: 0000 3041 0000 92c2 0000 f8c2 0000 30c2
000002b0: 0000 f642 0000 6c42 0000 d841 0000 de42
000002c0: 0000 60c1 0000 c841 0000 f841 0000 54c2
000002d0: 0000 aec2 0000 2c42 0000 a2c2 0000 d8c2
000002e0: 0000 a242 0000 c8c1 0000 ae42 0000 803f
000002f0: 0000 50c2 0000 8642 0000 0080 0000 00c3
00000300: 0000 b8c1 0000 0041 0000 8041 0000 fa42
00000310: 0000 9ec2 0000 ca42 0000 1cc2 0000 e042
00000320: 0000 54c2 0000 da42 0000 aec2 0000 b0c2
00000330: 0000 5c42 0000 50c2 0000 d0c1 0000 9e42
00000340: 0000 e842 0000 6cc2 0000 00c3 0000 f242
00000350: 0000 00c2 0000 74c2 0000 a642 0000 c841
00000360: 0000 2042 0000 00c3 0000 b841 0000 fe42
00000370: 0000 1cc2 0000 fe42 0000 7c42 0000 00c3
00000380: 0000 8242 0000 9cc2 0000 c041 0000 4040
00000390: 0000 7442 0000 9041 0000 9042 0000 d8c2
000003a0: 0000 d4c2 0000 0442 0000 4041 0000 d242
000003b0: 0000 1041 0000 a2c2 0000 80c1 0000 c042
000003c0: 0000 b2c2 0000 88c2 0000 92c2 0000 a8c1
000003d0: 0000 2c42 0000 9041 0000 4040 0000 00c3
000003e0: 0000 fe42 0000 bc42 0000 a8c1 0000 40c2
000003f0: 0000 00c3 0000 a0c0 0000 0442 0000 d041
127.0 -115.0 18.0 94.0 -128.0 -14.0 127.0 60.0
-17.0 -6.0 -64.0 -66.0 -24.0 127.0 -116.0 105.0
-61.0 92.0 56.0 -53.0 -28.0 34.0 -97.0 25.0
-28.0 44.0 -113.0 -33.0 28.0 62.0 12.0 118.0
-32.0 -128.0 112.0 41.0 -43.0 127.0 -53.0 -58.0
-21.0 -113.0 -15.0 93.0 -86.0 1.0 6.0 127.0
-13.0 -49.0 -6.0 -48.0 74.0 13.0 -37.0 6.0
9.0 7.0 27.0 -77.0 -55.0 31.0 127.0 108.0
-128.0 -11.0 -19.0 -128.0 -6.0 -88.0 99.0 -128.0
-100.0 75.0 -21.0 108.0 -97.0 91.0 76.0 18.0
-94.0 -24.0 -11.0 -120.0 109.0 73.0 15.0 80.0
85.0 82.0 -122.0 127.0 -15.0 -106.0 127.0 66.0
-10.0 -119.0 -29.0 30.0 -98.0 121.0 -62.0 84.0
-29.0 -45.0 -58.0 127.0 -31.0 19.0 92.0 -128.0
-18.0 103.0 -24.0 -69.0 63.0 107.0 -74.0 -98.0
20.0 77.0 -98.0 90.0 -128.0 110.0 -46.0 -40.0
-49.0 5.0 34.0 -117.0 50.0 28.0 -128.0 7.0
-21.0 77.0 70.0 -101.0 -75.0 13.0 127.0 125.0
-109.0 115.0 -5.0 -128.0 -9.0 -7.0 -106.0 -128.0
95.0 120.0 -108.0 5.0 -79.0 -53.0 127.0 38.0
88.0 -128.0 79.0 28.0 -128.0 127.0 79.0 -125.0
11.0 -73.0 -124.0 -44.0 123.0 59.0 27.0 111.0
-14.0 25.0 31.0 -53.0 -87.0 43.0 -81.0 -108.0
81.0 -25.0 87.0 1.0 -52.0 67.0 -0.0 -128.0
-23.0 8.0 16.0 125.0 -79.0 101.0 -39.0 112.0
-53.0 109.0 -87.0 -88.0 55.0 -52.0 -26.0 79.0
116.0 -59.0 -128.0 121.0 -32.0 -61.0 83.0 25.0
40.0 -128.0 23.0 127.0 -39.0 127.0 63.0 -128.0
65.0 -78.0 24.0 3.0 61.0 18.0 72.0 -108.0
-106.0 33.0 12.0 105.0 9.0 -81.0 -16.0 96.0
-89.0 -68.0 -73.0 -21.0 43.0 18.0 3.0 -128.0
127.0 94.0 -21.0 -48.0 -128.0 -5.0 33.0 26.0

head_b f4 [10]
00000000: 0000 74c6 0000 ee46 0000 62c6 0000 84c5
00000010: 0000 2a46 0000 2a46 0000 1446 0000 9d46
00000020: 0000 b9c6 0000 40c4
-15616.0 30464.0 -14464.0 -4224.0 10880.0 10880.0 9472.0 20096.0
-23680.0 -768.0
