Speech Recognition Algorithm Deployed/python/models/DNN/params/layer3_weight.npy (npy, 262272 bytes, 1 tensors)

array f4 [256, 256]
0	0x42d80000	108.0
1	0x41f00000	30.0
2	0x42640000	57.0
3	0x42820000	65.0
4	0xc1200000	-10.0
5	0xc2240000	-41.0
6	0xc0000000	-2.0
7	0xc29e0000	-79.0
8	0x42300000	44.0
9	0x421c0000	39.0
10	0xc2400000	-48.0
11	0x41100000	9.0
12	0xc2440000	-49.0
13	0x42a60000	83.0
14	0xc2200000	-40.0
15	0xc27c0000	-63.0
16	0xc1500000	-13.0
17	0xc1500000	-13.0
18	0x41200000	10.0
19	0x42800000	64.0
20	0xc1b00000	-22.0
21	0xc27c0000	-63.0
22	0x421c0000	39.0
23	0x42000000	32.0
24	0x42500000	52.0
25	0xc1d00000	-26.0
26	0x42100000	36.0
27	0xc1300000	-11.0
28	0x42380000	46.0
29	0x421c0000	39.0
30	0x42300000	44.0
31	0xc2540000	-53.0
32	0x41c80000	25.0
33	0xc1d00000	-26.0
34	0xc2080000	-34.0
35	0xc1700000	-15.0
36	0xc2100000	-36.0
37	0x42680000	58.0
38	0xc1a80000	-21.0
39	0xc2820000	-65.0
40	0xc2480000	-50.0
41	0xc1d80000	-27.0
42	0x3f800000	1.0
43	0xc2200000	-40.0
44	0xc2480000	-50.0
45	0xc0400000	-3.0
46	0xc2240000	-41.0
47	0xc1c80000	-25.0
48	0xc1800000	-16.0
49	0xc2140000	-37.0
50	0x41200000	10.0
51	0x41d80000	27.0
52	0x41c00000	24.0
53	0xc2200000	-40.0
54	0x427c0000	63.0
55	0x42960000	75.0
56	0x42ec0000	118.0
57	0xc2300000	-44.0
58	0x42440000	49.0
59	0x41c00000	24.0
60	0xc1400000	-12.0
61	0x42640000	57.0
62	0xc2a00000	-80.0
63	0xc1700000	-15.0
64	0x42540000	53.0
65	0x41200000	10.0
66	0x42240000	41.0
67	0xc2000000	-32.0
68	0xc1500000	-13.0
69	0xc2100000	-36.0
70	0x41a80000	21.0
71	0x42500000	52.0
72	0x41a00000	20.0
73	0x40c00000	6.0
74	0xc0400000	-3.0
75	0x42180000	38.0
76	0xc2700000	-60.0
77	0x41a00000	20.0
78	0xc1900000	-18.0
79	0x42180000	38.0
80	0xc1b80000	-23.0
81	0xc2860000	-67.0
82	0x41a00000	20.0
83	0xc21c0000	-39.0
84	0xc25c0000	-55.0
85	0xc24c0000	-51.0
86	0x42080000	34.0
87	0x42340000	45.0
88	0xc1d00000	-26.0
89	0xc2a20000	-81.0
90	0x41800000	16.0
91	0x423c0000	47.0
92	0xc1400000	-12.0
93	0xc1200000	-10.0
94	0xc25c0000	-55.0
95	0x42960000	75.0
96	0xc2040000	-33.0
97	0x42a20000	81.0
98	0x41880000	17.0
99	0xc22c0000	-43.0
100	0x41d80000	27.0
101	0x423c0000	47.0
102	0xc1000000	-8.0
103	0x80000000	-0.0
104	0x41a00000	20.0
105	0x42c60000	99.0
106	0x420c0000	35.0
107	0x424c0000	51.0
108	0x42440000	49.0
109	0xc1600000	-14.0
110	0xc22c0000	-43.0
111	0x3f800000	1.0
112	0xc1880000	-17.0
113	0xc1200000	-10.0
114	0xc27c0000	-63.0
115	0x42200000	40.0
116	0xc1a80000	-21.0
117	0xc0c00000	-6.0
118	0x41900000	18.0
119	0x41500000	13.0
120	0xc1f80000	-31.0
121	0xc2140000	-37.0
122	0xc1800000	-16.0
123	0x41900000	18.0
124	0xc2380000	-46.0
125	0x41200000	10.0
126	0xc2100000	-36.0
127	0x40000000	2.0
128	0x41000000	8.0
129	0xc2000000	-32.0
130	0xc2200000	-40.0
131	0xc1f80000	-31.0
132	0x42da0000	109.0
133	0x42300000	44.0
134	0xc2580000	-54.0
135	0xc2440000	-49.0
136	0x42740000	61.0
137	0x40000000	2.0
138	0x42700000	60.0
139	0x42200000	40.0
140	0xc1c80000	-25.0
141	0xc24c0000	-51.0
142	0x40400000	3.0
143	0xc2400000	-48.0
144	0x41400000	12.0
145	0x429e0000	79.0
146	0x40c00000	6.0
147	0xc1e00000	-28.0
148	0x41d00000	26.0
149	0x42600000	56.0
150	0xc1e80000	-29.0
151	0xc22c0000	-43.0
152	0x428c0000	70.0
153	0x41200000	10.0
154	0x42540000	53.0
155	0xc2200000	-40.0
156	0x40e00000	7.0
157	0x42600000	56.0
158	0xc2600000	-56.0
159	0x42340000	45.0
160	0xc1900000	-18.0
161	0x41a00000	20.0
162	0x42780000	62.0
163	0xc25c0000	-55.0
164	0xc1880000	-17.0
165	0xc2180000	-38.0
166	0xc0e00000	-7.0
167	0x41e80000	29.0
168	0xc1900000	-18.0
169	0x80000000	-0.0
170	0x41200000	10.0
171	0x41980000	19.0
172	0x42580000	54.0
173	0xc20c0000	-35.0
174	0x3f800000	1.0
175	0x42040000	33.0
176	0x42600000	56.0
177	0xc1c00000	-24.0
178	0xc1b00000	-22.0
179	0x40000000	2.0
180	0x421c0000	39.0
181	0x42500000	52.0
182	0x427c0000	63.0
183	0xc0c00000	-6.0
184	0x42500000	52.0
185	0x41100000	9.0
186	0xc2840000	-66.0
187	0xc2180000	-38.0
188	0xbf800000	-1.0
189	0xbf800000	-1.0
190	0x42380000	46.0
191	0xc2380000	-46.0
192	0xc2840000	-66.0
193	0x42600000	56.0
194	0x42100000	36.0
195	0xc1100000	-9.0
196	0xc2640000	-57.0
197	0xc2740000	-61.0
198	0xc22c0000	-43.0
199	0xc25c0000	-55.0
200	0x42580000	54.0
201	0xc0c00000	-6.0
202	0xc2240000	-41.0
203	0xc2180000	-38.0
204	0xc2500000	-52.0
205	0x42600000	56.0
206	0xc1d00000	-26.0
207	0x41f80000	31.0
208	0xc0000000	-2.0
209	0x42180000	38.0
210	0x42a00000	80.0
211	0x41f80000	31.0
212	0x41900000	18.0
213	0x42400000	48.0
214	0xc2aa0000	-85.0
215	0x42300000	44.0
216	0xc0e00000	-7.0
217	0x421c0000	39.0
218	0xc1d80000	-27.0
219	0xc2040000	-33.0
220	0xc0400000	-3.0
221	0x80000000	-0.0
222	0x421c0000	39.0
223	0x40c00000	6.0
224	0x42500000	52.0
225	0xc2300000	-44.0
226	0x421c0000	39.0
227	0x41100000	9.0
228	0xc2640000	-57.0
229	0x42240000	41.0
230	0xc1e00000	-28.0
231	0x42180000	38.0
232	0x42b80000	92.0
233	0xc2860000	-67.0
234	0xc1b00000	-22.0
235	0xc23c0000	-47.0
236	0xc1e80000	-29.0
237	0x40000000	2.0
238	0x42000000	32.0
239	0x41800000	16.0
240	0x41b80000	23.0
241	0x420c0000	35.0
242	0x42040000	33.0
243	0xc0e00000	-7.0
244	0x421c0000	39.0
245	0x41980000	19.0
246	0x40a00000	5.0
247	0x42100000	36.0
248	0x40800000	4.0
249	0xc1980000	-19.0
250	0xc2480000	-50.0
251	0x426c0000	59.0
252	0x428e0000	71.0
253	0xc2780000	-62.0
254	0x41900000	18.0
255	0xc2100000	-36.0
