python/models/DNN_DEEP/params/layer3_weight.npy (npy, 262272 bytes, 1 tensors)

array f4 [256, 256]
0	0x41a80000	21.0
1	0xc2780000	-62.0
2	0x41980000	19.0
3	0x425c0000	55.0
4	0x41900000	18.0
5	0xc2240000	-41.0
6	0x42040000	33.0
7	0x41400000	12.0
8	0xc1c80000	-25.0
9	0xc2c40000	-98.0
10	0xc2a00000	-80.0
11	0xc2a60000	-83.0
12	0xc0400000	-3.0
13	0x421c0000	39.0
14	0x41300000	11.0
15	0xc2380000	-46.0
16	0xc2300000	-44.0
17	0xc1d00000	-26.0
18	0xc1100000	-9.0
19	0xc1000000	-8.0
20	0xc1e80000	-29.0
21	0x42280000	42.0
22	0x41900000	18.0
23	0xc20c0000	-35.0
24	0x42440000	49.0
25	0x423c0000	47.0
26	0xc1e00000	-28.0
27	0xc1100000	-9.0
28	0x41200000	10.0
29	0x42100000	36.0
30	0xc1900000	-18.0
31	0x41e80000	29.0
32	0xc20c0000	-35.0
33	0xc1200000	-10.0
34	0xc27c0000	-63.0
35	0x41c00000	24.0
36	0x42400000	48.0
37	0x41b00000	22.0
38	0xc2740000	-61.0
39	0xc0e00000	-7.0
40	0xc2540000	-53.0
41	0x41d00000	26.0
42	0xc1200000	-10.0
43	0x42540000	53.0
44	0x41a00000	20.0
45	0xbf800000	-1.0
46	0xc1500000	-13.0
47	0xc2e00000	-112.0
48	0xc2b60000	-91.0
49	0xc21c0000	-39.0
50	0x41d80000	27.0
51	0xc2080000	-34.0
52	0x421c0000	39.0
53	0xc1c80000	-25.0
54	0xc21c0000	-39.0
55	0x40000000	2.0
56	0x42540000	53.0
57	0xc1b80000	-23.0
58	0xc2b00000	-88.0
59	0xc2840000	-66.0
60	0x41c00000	24.0
61	0x426c0000	59.0
62	0x40c00000	6.0
63	0x41d80000	27.0
64	0xc1a80000	-21.0
65	0x41f00000	30.0
66	0x41880000	17.0
67	0x41000000	8.0
68	0x41880000	17.0
69	0x41700000	15.0
70	0xc27c0000	-63.0
71	0xc2820000	-65.0
72	0xc2c40000	-98.0
73	0xc26c0000	-59.0
74	0xc2480000	-50.0
75	0xc2040000	-33.0
76	0xc2280000	-42.0
77	0xc2000000	-32.0
78	0x42040000	33.0
79	0x42860000	67.0
80	0xc1f80000	-31.0
81	0xc2000000	-32.0
82	0xc28e0000	-71.0
83	0xc2340000	-45.0
84	0x42680000	58.0
85	0x429e0000	79.0
86	0x41800000	16.0
87	0x421c0000	39.0
88	0xc2500000	-52.0
89	0xbf800000	-1.0
90	0xc1e00000	-28.0
91	0x40000000	2.0
92	0x42c00000	96.0
93	0x41400000	12.0
94	0xc0400000	-3.0
95	0x423c0000	47.0
96	0x41f00000	30.0
97	0xc1e00000	-28.0
98	0xc1500000	-13.0
99	0xc2300000	-44.0
100	0x40800000	4.0
101	0x40000000	2.0
102	0xc1a00000	-20.0
103	0xc0000000	-2.0
104	0xc2540000	-53.0
105	0xc28a0000	-69.0
106	0x42440000	49.0
107	0xc0c00000	-6.0
108	0x41c80000	25.0
109	0xc1e80000	-29.0
110	0x41d00000	26.0
111	0x41e80000	29.0
112	0xc2040000	-33.0
113	0x42840000	66.0
114	0xc2840000	-66.0
115	0xc29c0000	-78.0
116	0x42a80000	84.0
117	0xc2140000	-37.0
118	0xc2da0000	-109.0
119	0x41e80000	29.0
120	0xc2500000	-52.0
121	0xc1500000	-13.0
122	0x41b00000	22.0
123	0xc1600000	-14.0
124	0xc28a0000	-69.0
125	0xc1400000	-12.0
126	0x42900000	72.0
127	0x40a00000	5.0
128	0x41880000	17.0
129	0xc2c20000	-97.0
130	0xc2440000	-49.0
131	0x42080000	34.0
132	0x423c0000	47.0
133	0x429a0000	77.0
134	0x40c00000	6.0
135	0xc1f00000	-30.0
136	0xc2ec0000	-118.0
137	0x40400000	3.0
138	0xc2240000	-41.0
139	0x42180000	38.0
140	0x41500000	13.0
141	0x41c00000	24.0
142	0xc1b80000	-23.0
143	0x41500000	13.0
144	0xc1400000	-12.0
145	0xc1880000	-17.0
146	0x41c80000	25.0
147	0x42d40000	106.0
148	0xc2440000	-49.0
149	0xc2a40000	-82.0
150	0xc1000000	-8.0
151	0x41800000	16.0
152	0xc2a60000	-83.0
153	0xc1a00000	-20.0
154	0xc21c0000	-39.0
155	0xc1900000	-18.0
156	0xc2800000	-64.0
157	0xc1a80000	-21.0
158	0xc1a00000	-20.0
159	0xc1400000	-12.0
160	0xc2280000	-42.0
161	0xc2880000	-68.0
162	0xc2a00000	-80.0
163	0xc2400000	-48.0
164	0x41000000	8.0
165	0xc2b80000	-92.0
166	0xc2aa0000	-85.0
167	0x42100000	36.0
168	0x41600000	14.0
169	0x41400000	12.0
170	0x42540000	53.0
171	0xc2e80000	-116.0
172	0xc1300000	-11.0
173	0xc23c0000	-47.0
174	0xc2d00000	-104.0
175	0x41400000	12.0
176	0xc0400000	-3.0
177	0xbf800000	-1.0
178	0xc1900000	-18.0
179	0x420c0000	35.0
180	0x41b80000	23.0
181	0x80000000	-0.0
182	0xc2300000	-44.0
183	0x41e80000	29.0
184	0xc28c0000	-70.0
185	0xc1300000	-11.0
186	0xc28c0000	-70.0
187	0xc25c0000	-55.0
188	0xc2100000	-36.0
189	0x42380000	46.0
190	0x41100000	9.0
191	0xc2040000	-33.0
192	0xc2860000	-67.0
193	0xc2180000	-38.0
194	0x42400000	48.0
195	0xc2940000	-74.0
196	0xc2700000	-60.0
197	0xc28c0000	-70.0
198	0xc2600000	-56.0
199	0x41880000	17.0
200	0xc2640000	-57.0
201	0x41e00000	28.0
202	0xc2a80000	-84.0
203	0x42980000	76.0
204	0xc2c60000	-99.0
205	0xc2040000	-33.0
206	0x420c0000	35.0
207	0xc2180000	-38.0
208	0xc1f00000	-30.0
209	0x42ac0000	86.0
210	0x41880000	17.0
211	0xc2180000	-38.0
212	0x41200000	10.0
213	0xc2ae0000	-87.0
214	0x41000000	8.0
215	0x421c0000	39.0
216	0xc2880000	-68.0
217	0xc23c0000	-47.0
218	0xc2aa0000	-85.0
219	0x423c0000	47.0
220	0x42ae0000	87.0
221	0x42600000	56.0
222	0xc0e00000	-7.0
223	0xc1300000	-11.0
224	0x41200000	10.0
225	0xc0800000	-4.0
226	0x3f800000	1.0
227	0xc1e80000	-29.0
228	0x42540000	53.0
229	0xc1f80000	-31.0
230	0x42080000	34.0
231	0xc2000000	-32.0
232	0xc1f00000	-30.0
233	0x42e80000	116.0
234	0xc2940000	-74.0
235	0xc1b80000	-23.0
236	0x424c0000	51.0
237	0xc1f00000	-30.0
238	0xc1500000	-13.0
239	0xc1f80000	-31.0
240	0x42340000	45.0
241	0xc2080000	-34.0
242	0xc2ba0000	-93.0
243	0x41000000	8.0
244	0xc2b80000	-92.0
245	0xc1700000	-15.0
246	0x420c0000	35.0
247	0xc1500000	-13.0
248	0xc1500000	-13.0
249	0xc1300000	-11.0
250	0xc2f00000	-120.0
251	0xc1a00000	-20.0
252	0x40a00000	5.0
253	0xc2600000	-56.0
254	0x42400000	48.0
255	0x42040000	33.0
